.dart_tool/chrome-device/Default/optimization_guide_prediction_model_downloads/e4b1c596-c0a5-4d61-8fc5-1486a9710658/model.tflite (tflite, 67216 bytes, 5 tensors)

dnn/hiddenlayer_1/bias/part_0 f4 [64]
00000000: 517a d83d 789b 4d3d 37b8 82bd a174 f4bc
00000010: 16ee 173d ee71 2e3d 8957 073c a25b 0bbb
00000020: 827a a83d e859 423d f620 a53d 46b6 913d
00000030: b99f d03d 05e4 6bbc aa99 2fbd 1ef6 983d
00000040: 2e2e 2abd 594e 943d e943 dcbc 74c6 26bd
00000050: e650 47bc 88de 31bd 20f4 50bc 06e7 c0bd
00000060: fdbc 823d 93ae 9c3d 6ba8 953c a620 5bbc
00000070: f82a 9ebc f3d1 82bd 214f b8bd db65 0abd
00000080: f9d5 a4bd 2e1a 1cbd 4f5c 49ba d577 4ebd
00000090: d6db 6dbb 0c08 f13d 8fee 5cbd 2d2c 3bbd
000000a0: f442 2e3d 0b67 9cbc a1cd e83b 25b2 87bd
000000b0: 6c72 53bc 597b 0e3d f00e d63c 6b74 303c
000000c0: c567 81bc f54f 863d b2a2 cd3d 0b6a c13c
000000d0: 938a ed3d 37ee e33c 029a c43c 49fa ee3d
000000e0: 7a06 7d3d 8335 f6bb ebc8 8f3d 495c 143c
000000f0: 5097 f3bb b5d3 ae3c 3133 8ebc 4caa 58bc
0.10570205 0.050197095 -0.063827924 -0.02984077 0.03709229 0.04258912 0.008260616 -0.0021264334
0.082264915 0.047449023 0.080629274 0.07114844 0.10186715 -0.014397626 -0.042871155 0.07468818
-0.041547947 0.07241506 -0.02688785 -0.040716603 -0.012165284 -0.043425113 -0.012753516 -0.09419064
0.06383703 0.07650485 0.018268785 -0.013374483 -0.019307598 -0.06387701 -0.08999468 -0.033788543
-0.080486245 -0.038110904 -0.00076812966 -0.05040725 -0.0036294363 0.11769113 -0.053938445 -0.045696426
0.04254432 -0.019092103 0.007104591 -0.06625775 -0.012905698 0.034785602 0.02613017 0.010769944
-0.015796551 0.06558219 0.10040797 0.023610136 0.115986966 0.02782355 0.023999218 0.11668832
0.061773755 -0.0075137033 0.07020744 0.009055206 -0.0074338093 0.021341184 -0.017358394 -0.013224196

dnn/hiddenlayer_0/bias/part_0 f4 [128]
00000000: af03 5e3d f847 e5bd 0d14 eabc 960b 813c
00000010: e345 013d 4b7a e03c 548e 423a 6969 cbbc
00000020: 8dca f23c 297a 5abc 5774 493d ad47 df3c
00000030: b69d f63c 69da 4ebc dff9 6b3d 8090 b6bb
00000040: 82e0 8c3d dc0c 683d 7453 5d3c 1f96 0abd
00000050: e8fb 873c fd67 3f3d 263c 8a3b c3a8 c53d
00000060: 2ef3 173d 1f89 003c ccd6 2cbd b8bd 82bd
00000070: a7d0 3b3d e871 20bd 6a8a 7bbd 399e 063d
00000080: 4885 15be b3eb 9a3b 3863 33bb c5a8 163c
00000090: d750 713d 51b2 a5ba c5b8 d7bb 0c72 6e3d
000000a0: fbf3 89bc 7726 1bbc 7f77 24be 80ec edbb
000000b0: b452 573c 835a 073d 9c8a 2d3c 9c35 0b3d
000000c0: dcab 0cbc fb21 85bd 89fe 08bc ab22 733c
000000d0: 559d cf3c 8d7c 643d 3a54 493c 0552 4fbc
000000e0: 4d6c 17bd b136 ac3c 5dea e93c 64ba 0fbd
000000f0: ff9e 95bc f440 f43c 8fca 203d 26cf bdbc
00000100: 20e5 c03b ec73 d53b e4c8 d4bd c1fc 44bd
00000110: 7d6c 053c b800 08bd 85c0 c53c c67e 85bd
00000120: 46d5 0cbd 6946 a6bd 8cff c43d 4c83 9bbc
00000130: dc20 2b3d cada 1e3d 65d4 20bd f4ae 233c
00000140: f2cb 41bd 004a a3bc aef9 a6bd d988 93bd
00000150: 29e5 1b3d cfb6 9ebd 8445 fdba 5c2b be3c
00000160: d74c 553c b30f 063d 9caa 46bb 67f3 ac3d
00000170: 296c 0a3d a188 bf3c 563c c0bd ddc1 2abd
00000180: b7de 5cbd 2a1a 513d ccbf c73a e8bd 21bb
00000190: da80 ac3c d418 833c 419c bbbc d3be be3c
000001a0: a099 0bbd 3aaa c9bb 703c bfba 8452 fa3d
000001b0: d0ad 04bc 901d a7bc 04a2 263d dc47 aa3c
000001c0: fbcf 06bd baab adbc f595 4dbc 3228 37be
000001d0: 012e 65bd 9516 9a3c 03d2 7dbd 5948 273c
000001e0: 9430 6b3d d388 74bd d960 2b3d 9961 82bd
000001f0: 0ba0 06bd 1265 c63d 9108 00be ba22 453c
0.05420273 -0.111953676 -0.028574014 0.015752595 0.03156079 0.027402064 0.0007421721 -0.024830537
0.0296376 -0.013334789 0.049183216 0.027255857 0.0301045 -0.012625315 0.057611343 -0.005571425
0.06878759 0.05665289 0.013508666 -0.033834573 0.01659961 0.04673003 0.004218596 0.09651329
0.03709715 0.007845192 -0.042197034 -0.06383842 0.045853283 -0.03917113 -0.0614113 0.032865737
-0.14601624 0.0047278046 -0.0027372371 0.009195511 0.058914986 -0.0012641643 -0.0065833055 0.058214232
-0.016839972 -0.00946962 -0.16061209 -0.007260859 0.013142277 0.033045303 0.010592129 0.033986673
-0.008585896 -0.06500622 -0.008361467 0.014839808 0.025343576 0.055782843 0.012288148 -0.012653832
-0.036968518 0.021022173 0.028554136 -0.035089865 -0.018264292 0.029816128 0.039255675 -0.023170065
0.005886689 0.006514063 -0.10389879 -0.048092607 0.008143541 -0.03320381 0.024139652 -0.06518321
-0.03438308 -0.081188984 0.09619054 -0.018983506 0.041779384 0.038782872 -0.039265055 0.009990443
-0.047313638 -0.019932747 -0.08153091 -0.07203836 0.03806034 -0.07749712 -0.0019323085 0.023214035
0.013018808 0.032729816 -0.0030314093 0.08444863 0.033794556 0.02338058 -0.09386508 -0.04168879
-0.053923335 0.051050343 0.0015239655 -0.0024679843 0.021057535 0.01600305 -0.022901656 0.023284351
-0.034082055 -0.006154326 -0.0014590155 0.1222277 -0.008098081 -0.020399839 0.040681854 0.020786218
-0.03291319 -0.02120005 -0.01254796 -0.17886427 -0.055952076 0.018809596 -0.06196786 0.01021012
0.057419375 -0.0597008 0.041840408 -0.063662715 -0.032867473 0.096872464 -0.12503268 0.012032205

dnn/hiddenlayer_0/MatMul f4 [128, 12]
00000000: 0f51 45be cfb0 ab3c d028 3cbe d596 88bd
00000010: 7393 e8bd 3f23 993d a193 803d d8c6 cdbb
00000020: ddff a03d a9a9 0f3e 574c 1b3e 05c0 83bd
00000030: 984f df3d d90c bb3d b814 83be e799 243e
00000040: c72e 92bd aa3c f2bc 3091 eebd c405 bdbd
00000050: 70fe a43c 031f d1bc b8fb b13d b072 b43d
00000060: edd1 01be 9ffb 9b3c 8d75 793e 1638 153e
00000070: dd28 a13c 9a07 06be 1fa8 173e 0f20 8e3c
00000080: ce03 f93d c195 08be 367c cc3d 1ed1 713d
00000090: 110f 23bc aa81 febd ebd6 d4bd c34e 4cbe
000000a0: cca3 01be 5183 e73d 087d 1c3e 919f 3b3d
000000b0: 7fe2 823d 56f2 7ebd 5e4e eabc e3f3 c9bd
000000c0: 85fb 28be d71c dabd b45a e03c 77f4 783d
000000d0: 04ad 483e fa79 ff3d 1b55 61be 6db6 12bd
000000e0: 17d2 153e 4d0a 0f3e a96b 723d 15d7 81be
000000f0: 4485 1c3d 8b87 c63d 1f83 55be e0f3 4d3e
00000100: 682d b7bd fbdc 19be 61b8 633e 6338 46be
00000110: cc0c 3b3e f7d8 46bd b26f 013d f7d0 7bbc
00000120: 5fdb 003e 3f4e 0c3e a12d 64be b2b4 c33d
00000130: 9367 aa3c 2f9b 5f3c 47a4 e6bd faf4 933c
00000140: 4b03 f53d 632f 553c a1ef 3f3e 8ed9 23bd
00000150: c94c 9bbd 94e5 49be 3eeb c63d 6e3c 543c
00000160: 946b 2fbd a09a c0bd 2cf9 223e 741f 5c3b
00000170: b98c df3d f7b8 a93d 3bff dcbd 6128 babb
00000180: c2f5 c2bd 1bc6 01bd 5012 e1bd 5eb6 df3d
00000190: d68b 35be 97cc f7bd 283e 07be 3c6f 06be
000001a0: cf01 05be fe1f 30bd 4fc9 55be 58ae 38be
000001b0: f282 6abe 1c40 03be 7f02 f63d e009 6a3d
000001c0: d359 38be ef4f 0abe 8a75 e9bd 6385 29bd
000001d0: 08d8 0a3c bac4 483e 3413 b43d 2a27 883d
000001e0: 1113 3abe e021 55bc c0f8 4d3e aa1f 4abe
000001f0: 5571 353c d005 373e 6d36 12bd 6543 bc3d
00000200: 9ace 0dbc 88b4 f8bc 61df 433d 4ff3 1bbe
00000210: 7604 a6bc 928b fe3c b20b 50bd 9280 86bc
00000220: b5d2 8b3d 79a0 09be 9175 c9bd 4b9b f83c
00000230: 9393 17be 9fc6 1c3e 79a6 cdbd 9eee b3bd
00000240: df44 2cbe f11e a8bd f6c0 043e efa7 bc3b
00000250: 241d 353d 6f53 223d d815 38bd b59e 9abc
00000260: 2f24 e0bb 2af9 623b 1245 983d f427 5bbe
00000270: 534e 45be 72bc e53d 114e bc3d a646 133e
00000280: 62da 613d a660 ffbd 3150 f43d 3edf b63c
00000290: d2ae 2cbe 0c85 c1bd e4de 26bd e330 363d
000002a0: ed91 e4bd 1a66 eb3d cd17 353e 381a b63d
000002b0: 7936 46be c888 063b dbfb 7a3e 0ee5 93bd
000002c0: bce4 f3bc fb46 e43d fd55 83bd 0996 1ebe
000002d0: 74f4 51bd 77f7 d8bd abc4 9c3c 792f b53d
000002e0: 7c30 0bbe c135 943d d9a0 4b3e e869 2ebe
000002f0: 0002 eb3d 7443 003e 4b19 d93d 9d19 e63d
00000300: 684a a63d fe2c 133e d12f de3d a5cc e3bd
00000310: 2db7 cabd ae5e e43d 695f 6bbe 7cb4 103e
00000320: e3c0 533d 13ae 1bbe ed59 8abd 97e8 2b3d
00000330: 3bd4 783c 0c85 f03d b14a 103e 18e6 edbc
00000340: ea2b ba3d cb51 c73d 8675 a1bd 80d3 893c
00000350: 9c59 3cbe b0df 2cbd b25a edbc ae0b 3ebe
00000360: 75cd 6d3d d130 993d ae8f 07be 08e0 41be
00000370: 9dd7 bd3d 58b5 1ebe 3638 c83d d1cd 253e
00000380: e503 293e af20 27be 5955 7abe cc97 34be
00000390: 5ea8 ccbd bbe9 43bd 8f33 21be 29f7 98bd
000003a0: a680 c3bd bd12 26bc 18e1 4ebe 9de5 23be
000003b0: 597d 0abc ec18 9abd 9c51 49bd 973c 123e
000003c0: fd28 1abe e3b3 6c3d 72f3 3b3e 01c4 80be
000003d0: 20c3 a5bc b5ef 1cbd e8bb 87be 4abb e63d
000003e0: 8373 8e3d a1a1 06be b9a3 36be c865 40bd
000003f0: 4a49 b6bd 68b0 0d3e e16c 00be a21c debd
-0.19269203 0.020958332 -0.18374944 -0.06669394 -0.11356249 0.07477426 0.06278158 -0.0062798075
0.07861302 0.14029564 0.1516584 -0.06433109 0.10903853 0.0913331 -0.25601745 0.16074334
-0.07137828 -0.029569943 -0.11648786 -0.09229615 0.020140857 -0.025527483 0.0869059 0.088109374
-0.12677737 0.01904088 0.24361248 0.14572176 0.019672805 -0.13088837 0.14810227 0.017349271
0.12158929 -0.13338377 0.09984629 0.05903732 -0.009952323 -0.12427075 -0.10392555 -0.1995192
-0.1266014 0.113043435 0.1528207 0.04580647 0.06390857 -0.06224283 -0.028601822 -0.09860971
-0.16502197 -0.10650032 0.027387 0.060780015 0.1959725 0.12474437 -0.22005121 -0.035818506
0.14630924 0.13968773 0.059184704 -0.25359407 0.03821303 0.096938215 -0.208508 0.20112562
-0.089442074 -0.15025704 0.22238304 -0.19357447 0.182666 -0.048546758 0.03160066 -0.015369645
0.12583683 0.13701724 -0.22283031 0.09555949 0.020801341 0.0136478385 -0.11261802 0.01806115
0.11963519 0.013011786 0.18743755 -0.0400024 -0.07583005 -0.19716483 0.09712838 0.012953861
-0.042827204 -0.094044924 0.15915364 0.0033588083 0.109155126 0.08287232 -0.10790869 -0.005681083
-0.09519531 -0.03168307 -0.10989821 0.10923456 -0.17729124 -0.12099569 -0.13207304 -0.1312837
-0.12988971 -0.04299926 -0.20877574 -0.18035257 -0.22901514 -0.12817425 0.12012195 0.057138324
-0.18003015 -0.13507055 -0.11399372 -0.041386973 0.008474357 0.19606295 0.08792725 0.06648095
-0.18171336 -0.013008565 0.20114422 -0.19738641 0.011074384 0.17873311 -0.035696436 0.09192542
-0.008655215 -0.030359522 0.047820453 -0.15229534 -0.020265799 0.031072412 -0.050792404 -0.016418729
0.068272986 -0.13440122 -0.09836877 0.030347487 -0.14802389 0.15310143 -0.10041518 -0.08785747
-0.16823147 -0.082090266 0.12964234 0.005757324 0.044217244 0.03963035 -0.044942707 -0.018874506
-0.006840251 0.0034633377 0.07435049 -0.2140196 -0.1926816 0.11217584 0.091945775 0.14382419
0.055139907 -0.12469606 0.11929358 0.022323247 -0.16863564 -0.09449205 -0.04073991 0.044480216
-0.11160646 0.11494084 0.1768486 0.088917196 -0.19356717 0.0020528305 0.24510138 -0.07221423
-0.029772155 0.11146351 -0.06412885 -0.15486921 -0.05125852 -0.10594075 0.019136747 0.08846945
-0.13592714 0.07236815 0.19885577 -0.17032588 0.11474991 0.12525731 0.106005274 0.11235354
0.081196606 0.14372632 0.10848964 -0.11123017 -0.09898219 0.11150871 -0.22985615 0.1413135
0.051697623 -0.15203123 -0.06755433 0.04196986 0.015187318 0.11744127 0.14090993 -0.029040381
0.09090407 0.09732398 -0.07883744 0.016824484 -0.18393558 -0.042205513 -0.028973911 -0.18559143
0.058057267 0.07480014 -0.13238403 -0.18933117 0.092696406 -0.15498865 0.097763464 0.16191794
0.16505392 -0.16321062 -0.2444662 -0.17636031 -0.09993051 -0.047830325 -0.15742324 -0.07469017
-0.09546022 -0.0101363035 -0.20203054 -0.1600556 -0.008452737 -0.07524285 -0.049150094 0.14280926
-0.15054698 0.05778874 0.18354586 -0.2514954 -0.020234644 -0.03831454 -0.2651055 0.11266191
0.06955626 -0.13147594 -0.17835893 -0.046972066 -0.089006975 0.13836825 -0.12541534 -0.10845305

dnn/hiddenlayer_1/MatMul f4 [64, 128]
00000000: 470f a6bd 22d1 1e3e d709 b0bd 6329 0ebd
00000010: cd59 dabd 6dfc 033d ac1e f83d 182e 40bd
00000020: 03d0 d63d 884f a43d f00f 573e b0c9 f13d
00000030: fa83 bebd c383 273d ce75 2e3d c35b b4bd
00000040: 05af 193e 3ecb 6a3b 7602 a73d 1537 9ebd
00000050: 0683 063d 67fc abbd 75b9 3a3e b202 9bbd
00000060: 6434 f33d 65d9 00be 6451 e03d 5898 8d3d
00000070: 4658 563e b9ba f73d 2762 88ba c0c6 4a3e
00000080: a16d 563e 2046 ebbd 6c27 183e 7a23 54bd
00000090: ce6c 15be 1f77 0dbe 823e f13d da81 4dbd
000000a0: 037f a63d 6193 c33a dc1e f53c 532f c43d
000000b0: 66dc 9bbd 6914 a3bd d104 2e3e ba70 2f3d
000000c0: 5942 abbd 9ca5 83bd 147c 81bd 743c 2bbd
000000d0: 2416 1a3e 0af0 c13d 9e8b 843c 6985 e33d
000000e0: c8b8 59bd 3ec6 31bd 850f 2a3d 378b adbd
000000f0: c21a 52bd 94e9 d23d 73b7 eabd f31f a83d
00000100: 4356 91bd 8f48 b73d ce09 4b3d b3f4 36be
00000110: d749 89bd 84f4 e6bd ed6f 8d3d c9a3 c2bd
00000120: 309b be3d 79cd b23d 10df a6bc d842 f4bc
00000130: dfbf 14bd 2975 1c3e 462b 3a3e 7666 663d
00000140: 4d41 023e 0180 30bd a3a1 e0ba ecf8 33bd
00000150: 3ae7 5fbd 51cc 0b3e cb95 0cbe 53b7 fcbd
00000160: d61c e1bc 765e efbd 0db9 363e 7bbb 0fbc
00000170: ae05 e6bd 2364 c03d 23d7 8b3c 4a3c 80bd
00000180: e270 5dbd 51ff 14be 89e8 b7bd 8f4c dcbd
00000190: 3e35 0fbe c090 f33d a921 61bd 0f2e 8fbd
000001a0: ee59 b3bc 910e 173e 19fe ce3d 915f 3e3e
000001b0: 2471 d23d b452 bebd b383 ba3c a330 14be
000001c0: 29c3 603d c5f5 bebd 703e b8bd 5518 8e3d
000001d0: f72b 99bd bb8a 2f3e 52bb 74bb 0f3a 04be
000001e0: 62e0 523d e76f 05be 1d27 213d 4b84 5a3e
000001f0: cd18 98bd c7a9 bb3d 353b a03d 10ee a83c
00000200: 32e9 3c3e 8527 3a3e fd12 913d 8449 f63d
00000210: b588 3e3d 9894 a63d 9eb2 123c 2586 a7bd
00000220: 51ba 66bd 59cc dd3d 47fe 713d dd0a ce3d
00000230: 3648 cdbd 144f dd3d 5775 fd3d 1de5 fc3b
00000240: a26f 053e 8e08 06be 29b9 02be 4a4a 223e
00000250: 8ca6 ac3d e1e9 a93d 03fc c4bc bd91 393c
00000260: bd3c 2dbe 274f b8bd a5f8 313e 27c1 ebbc
00000270: a287 d8bd 27ac 1ebe 35e7 acbd b672 403e
00000280: 6881 183e cb31 88bd 0a23 3cbe b0a9 223e
00000290: 4a1c 75bd 9bdf 28bd f8fe 6a3d 01ac e2bd
000002a0: 224b dfbd 43b2 97bd c1da 43bd 1790 d03d
000002b0: db7f 08be ded9 cabd f96e 96bd 13e3 97bd
000002c0: aff8 583d 9599 a9bc 7485 12be 37c0 023d
000002d0: 5a43 d3bd f4d1 f33c a586 09be fab3 1fbe
000002e0: 2c63 2f3d 1c60 eebd d9e3 32be c4e6 193e
000002f0: c487 3a3d 9dd2 ad3d c4af 6cbd 2995 a73d
00000300: 8c80 74bd 3537 8fbd 4ee5 283e a430 f1bd
00000310: 9d67 1fbe 8675 14be 19b2 53bd 8033 c3bd
00000320: d03d 433e aafe 3a3d 8443 b23d 16dd 02be
00000330: c23e ec3d 5a5b 0ebe 9bd5 debd f679 083d
00000340: 6005 3e3e cebf 693d 484c 303d c76a 14be
00000350: 8be7 79bb eb23 263d 94c5 dc3c 0adf c63d
00000360: 6dda 6f3c 6ec1 afbd 99ac 3d3c 21f2 203e
00000370: 7e0c 00be 0b6e 4a3d 55de d1bd 0ef6 fd3c
00000380: 959a 363d 8c9e c13b f457 88bb ea00 363e
00000390: e638 cdbd e779 f43d c967 d93d dabf 84bd
000003a0: cdfe eb3c 19a6 b3bc e164 3d3e 82e7 f0bd
000003b0: 3d46 bb3c f36d 13be 4e8b b73d eecb d1bb
000003c0: 2f98 b23d 5617 133e 7e10 10be 861b 6a3e
000003d0: 5f4e d13d 5f0c 95bd 0278 d8bd 92aa 04bc
000003e0: 2dc7 0d3e 1ba1 f23d fd52 58bd d247 033e
000003f0: 1196 c03d 3eb8 13be 4400 da3d bebd 01be
-0.08108383 0.15509465 -0.08595627 -0.03470744 -0.106616594 0.032223154 0.12115225 -0.04691896
0.10488894 0.08022982 0.21002173 0.11806047 -0.09302516 0.040897142 0.042592816 -0.08806565
0.15008171 0.0035826708 0.08154766 -0.0772535 0.032839797 -0.08397751 0.18234809 -0.075688735
0.11875227 -0.1258293 0.10953024 0.06913823 0.20932111 0.120961614 -0.0010405228 0.1980238
0.20940258 -0.11487985 0.14858788 -0.051791646 -0.14592287 -0.13814972 0.117795005 -0.050172664
0.08129694 0.0014921242 0.029921941 0.09579339 -0.07610397 -0.07962877 0.16994025 0.042832114
-0.08362264 -0.06428072 -0.06322494 -0.0418057 0.15047508 0.09469612 0.016179856 0.1110943
-0.053154737 -0.04340195 0.041518707 -0.08473819 -0.05129505 0.10298458 -0.114607714 0.08209219
-0.07096531 0.08949386 0.049569897 -0.17866783 -0.06703537 -0.112771064 0.06906114 -0.09503896
0.093069434 0.08730597 -0.020370036 -0.02981703 -0.036315795 0.15279068 0.1818057 0.056250058
0.12720223 -0.043090824 -0.0017138015 -0.043938562 -0.054663874 0.1365216 -0.13729016 -0.12339654
-0.02747957 -0.11687939 0.17844029 -0.008772726 -0.11231552 0.093940996 0.017070359 -0.06261499
-0.05406273 -0.1455052 -0.089798994 -0.1075679 -0.13985154 0.11892843 -0.05496374 -0.06991207
-0.021893468 0.1475165 0.10107059 0.18591143 0.10275486 -0.09293118 0.022767877 -0.14471678
0.05487362 -0.093242206 -0.08996284 0.06938235 -0.07479089 0.17142765 -0.0037343097 -0.12912773
0.05148352 -0.13030969 0.039343942 0.21339528 -0.074266054 0.09163242 0.07823793 0.02062133
0.18448332 0.18179138 0.070837 0.12025741 0.046517093 0.08133811 0.0089537185 -0.08179883
-0.05633003 0.10829992 0.05908039 0.10060666 -0.10023539 0.108060986 0.123758964 0.007717742
0.13030866 -0.13089201 -0.12765945 0.15848652 0.08430204 0.08296562 -0.02404595 0.011326251
-0.16917701 -0.08999472 0.17380007 -0.028778626 -0.10572745 -0.15495358 -0.08442537 0.18793759
0.14893115 -0.06650122 -0.18372741 0.15885043 -0.05984143 -0.04122887 0.057372063 -0.110679634
-0.10903002 -0.074070476 -0.04781604 0.10183733 -0.13330023 -0.09904836 -0.07345385 -0.07416358
0.05297154 -0.020703116 -0.14308721 0.03192159 -0.10315581 0.0297632 -0.13430269 -0.15596
0.042819187 -0.11639425 -0.1746973 0.15029436 0.045539632 0.08487437 -0.05778481 0.08182747
-0.059692904 -0.06992952 0.16493723 -0.117768556 -0.15566869 -0.14497957 -0.05168352 -0.09531307
0.19066548 0.045653023 0.08704284 -0.1277965 0.115354076 -0.13902035 -0.10880586 0.033319436
0.18556738 0.057067685 0.043041497 -0.14493857 -0.0038132395 0.040561598 0.026949681 0.0971051
0.014639479 -0.08581816 0.011576795 0.15717365 -0.12504765 0.04942135 -0.102474846 0.031001117
0.044581015 0.005908793 -0.0041608755 0.17773786 -0.10020618 0.119373135 0.106154986 -0.06481905
0.028808022 -0.021929787 0.18495513 -0.117629066 0.02286064 -0.14397411 0.08962117 -0.006402484
0.08720433 0.1436437 -0.14068791 0.22862062 0.10220026 -0.0727775 -0.10569765 -0.008097308
0.13845511 0.11847135 -0.05281352 0.12820366 0.09403623 -0.14425752 0.10644582 -0.12670037

dnn/logits/MatMul f4 [1, 64]
00000000: 8a64 ae3e fc28 7d3e 8ac3 38be f2ac 9bbe
00000010: 90fd b13e d53c 263e 1862 8a3d c5c0 8dbe
00000020: b98c 523e e393 7a3e b22b 7f3e 87be 113e
00000030: ddc8 673e 0875 e23d a4fd 78be 53f8 803e
00000040: dbc2 8abe f40d 953e d83d 9f3e 1559 e7bd
00000050: bcea 94bd bc32 d4bd b667 a1be c137 f03e
00000060: 7a76 c13e 57f7 493e 959b b43d b843 a1be
00000070: 80e5 4abe 2e36 e9bd 01cd 32be 0d9b b2be
00000080: ac20 9ebe 7855 acbe bfad 2fbd 92fa 21be
00000090: 1bbb 93bb 198c af3e 706f 1ebe 3c0b 19be
000000a0: 46ae 243e 3529 9ebd ad07 6a3e eb5c 9abe
000000b0: 0338 ba3e c349 123e 0544 c73d 6075 093e
000000c0: 1cfc 933c af17 9d3e 35e5 973e 9dcb da3d
000000d0: 81c0 ad3e 8c7c b13d b0b2 703d fa52 933e
000000e0: fe0a 803e 10df bebe d21a 653e f782 cc3d
000000f0: 9c79 62be 9eff 1bbd b37a babe da6f 07bd
0.3406108 0.24722666 -0.18043342 -0.30405384 0.34763765 0.16234143 0.06756991 -0.27686134
0.20561494 0.24470477 0.24919012 0.14232837 0.22635217 0.11057478 -0.24315506 0.25189456
-0.27101788 0.29112208 0.3110187 -0.11296288 -0.072713345 -0.10361239 -0.31524438 0.46917537
0.37785703 0.19723259 0.088187374 -0.31496978 -0.1981411 -0.11387287 -0.17461015 -0.3488392
-0.30884302 -0.33658957 -0.042890307 -0.15818241 -0.0045083887 0.34286574 -0.15472198 -0.14945692
0.16082105 -0.07722703 0.2285449 -0.30149016 0.3637086 0.1428595 0.097297706 0.13423681
0.018064551 0.30682132 0.2966706 0.106833674 0.3393593 0.086663336 0.05876416 0.28774244
0.25008386 -0.37279558 0.22373512 0.09985917 -0.22116703 -0.038085572 -0.36421737 -0.033065654
